…
027264: I tensorflow/core/platform/cpu_feature_guard.cc:182] This TensorFlow binary is optimized to use available CPU instructions in performance-critical operations.
To enable the following instructions: SSE SSE2 SSE3 SSE4.1 SSE4.2 AVX AVX2 AVX512F AVX512_VNNI AVX512_BF16 FMA, in other operations, rebuild TensorFlow with the appropriate compiler flags.
Model: "sequential"
_________________________________________________________________
 Layer (type)                Output Shape              Param #
=================================================================
 vgg16 (Functional)          (None, 7, 7, 512)         14714688

 flatten (Flatten)           (None, 25088)             0

 dense (Dense)               (None, 512)               12845568

 dropout (Dropout)           (None, 512)               0

 dense_1 (Dense)             (None, 4)                 2052

=================================================================
Total params: 27562308 (105.14 MB)
Trainable params: 12847620 (49.01 MB)
Non-trainable params: 14714688 (56.13 MB)
_________________________________________________________________